models/SBPmodel_R2_short7.pth (torch, 552065 bytes, 45 tensors)

weight_ih_l0 f4 [64, 23]
000000 a1 20 e7 bc 60 ef db 3e 3b d1 2d bf ed 6f 0f 3f
       -0.0282138 0.42956066 -0.67897385 0.5603016
000010 ac db f8 be 3c 96 a4 bf fa e1 e8 bd 8f a8 8d 3e
       -0.48605096 -1.2858348 -0.113712266 0.27667663
000020 03 d4 25 bf 40 6c 4e 3e d1 d3 49 be bb 26 34 bf
       -0.6477663 0.20158482 -0.19709708 -0.703716
000030 0f 58 f9 3e 7d 4d 39 be 0f 2c 92 3e 33 5f 0b 3f
       0.48699996 -0.18095966 0.2854924 0.5444214
000040 3c 5f 75 be fd 68 70 3d f1 3b 76 3f 91 94 02 bf
       -0.2396211 0.058693875 0.96185213 -0.51007944
000050 d8 7f 09 3f 71 0c b7 3c b3 04 06 3f 55 30 00 3d
       0.537107 0.0223448 0.5235092 0.031296093
000060 2d 15 65 bf 1a 8f 18 3f d5 fa 1f 3f cb 90 db 3e
       -0.89485437 0.59593356 0.62492114 0.42883906
000070 af 67 1d be 70 16 ad 3e 81 92 8e 3e b7 7e 01 bf
       -0.15371583 0.3380618 0.2784615 -0.50583977
000080 4e 46 29 3e 44 00 7c 3e 2d 13 4f be ca 12 29 be
       0.16530725 0.24609476 -0.20222159 -0.16511074
000090 d4 52 32 3d 70 7d b4 bd 82 bd 5b be c0 16 9f be
       0.043536022 -0.08812988 -0.2145901 -0.31072044
0000a0 39 0a df 3e 41 01 22 3e 63 e5 ac be e2 ec 5d be
       0.43562487 0.15820791 -0.33768758 -0.21672395
0000b0 04 8a 3f be 0b 9f 3b be 17 83 e6 bb 0f f1 36 3f
       -0.18704993 -0.18322389 -0.00703467 0.71461576
0000c0 ab 7b 9a bf a8 c7 ae bf 79 46 c9 bd dc d4 20 3f
       -1.206899 -1.365468 -0.09827895 0.628248
0000d0 f9 0b 30 be 27 3a 9e be 99 47 88 be 13 f0 3c 3f
       -0.17192067 -0.30903742 -0.26617125 0.73803824
0000e0 e7 73 a4 3d 84 86 c4 3d dd fb f6 3e 59 f4 47 be
       0.08029919 0.09595969 0.4823903 -0.19526805
0000f0 30 82 6f 3e c5 b6 01 3f 82 7b 45 3d 69 7a c0 3d
       0.23389506 0.5066951 0.04821349 0.09398348
000100 03 0f 4f be 00 ac ec be a4 e0 8e 3e 34 ae 16 3f
       -0.2022057 -0.46224976 0.27905762 0.5885956
000110 c2 b0 8c 3e f4 fe cf 3d 6d 5d 4c be 6b 20 a2 3e
       0.27478606 0.1015605 -0.19957514 0.31665358
000120 69 b7 1a be 67 0c a0 be 48 f7 38 bf 8f bf 4d be
       -0.15109028 -0.31259462 -0.7225232 -0.20092605
000130 68 43 81 be be 99 b1 be f8 93 6f 3f 2e 1d 6b be
       -0.2524674 -0.34687608 0.9358516 -0.2296035
000140 f7 4d 75 3e f7 0e 2d 3f fa 01 29 3e ca 50 48 bd
       0.23955522 0.6760096 0.1650466 -0.04890517
000150 fa e0 0f 3e 4c 8a 9e bd eb 33 29 be 5b 0a d3 bd
       0.14050665 -0.07741222 -0.16523711 -0.103047095
000160 b2 f1 fb 3c d3 e3 02 bf d8 5a 91 3e d2 ec d8 be
       0.030754898 -0.5112888 0.2838962 -0.4236818
000170 7d 9f 80 3e 9d 8b 93 be 04 c1 31 3e d4 71 3f 3c
       0.2512168 -0.28817454 0.17358786 0.011684854
000180 29 48 1c ba de d1 e1 3e 8a bd 07 be 69 de d4 3e
       -0.00059616804 0.44105428 -0.13255897 0.41575935
000190 7a 14 06 bf f7 76 0d bf 2e cc 05 bf 1e 2a 61 be
       -0.52374995 -0.5525965 -0.5226468 -0.21988723
0001a0 dd d6 cb 3e aa de 67 bd c9 b3 16 bf 24 fa f7 bd
       0.39812365 -0.056608833 -0.5886808 -0.121082574
0001b0 34 7e 74 be 36 a3 f1 bd bd e6 9c be 6c b3 cb bc
       -0.23876268 -0.11798708 -0.3064479 -0.024865828
0001c0 74 00 e4 3e f3 d0 2f 3f be 06 21 3f e9 46 ef be
       0.44531596 0.68678206 0.6290091 -0.46733788
0001d0 6c c3 61 bf cb 57 41 bf c2 1c 9a be fa 77 e7 be
       -0.88188815 -0.75524586 -0.30100065 -0.45208722
0001e0 d3 ba 14 bf dc 12 f3 3e 59 79 a5 3e da 4a 55 3e
       -0.5809757 0.47475326 0.32319143 0.20829335
0001f0 a2 17 7b 3e 7f b2 31 bf 6e 53 8d 3e df 32 8d 3e
       0.24520734 -0.6941299 0.27602714 0.27577874
000200 b2 c1 fa 3d 81 7c 86 3e 49 e8 c0 3e ce 9e 00 3f
       0.12243976 0.26266864 0.3767722 0.50242317
000210 0e 1d 02 3f 23 ed 6a bf 39 c6 6a be 90 d2 15 3f
       0.50825584 -0.9176809 -0.22927178 0.5852442
000220 77 3f 16 3f 07 ad 15 3f 29 3e 84 3e 16 5d 8d bf
       0.5869059 0.58467144 0.25828674 -1.1044033
000230 a0 c8 57 3f 02 86 13 3f 57 1b 98 be f6 4c 31 3f
       0.84290504 0.57626355 -0.2970836 0.6925806
000240 3d 65 1e 3f bc e4 1d bf d8 3b ce 3d d1 e5 2d bf
       0.6187323 -0.61677146 0.10070008 -0.67928797
000250 97 c0 d4 be ea bd 35 3f 49 cd 52 3f 37 50 45 3e
       -0.41553184 0.7099291 0.8234449 0.19268881
000260 4b e1 0e bf 81 63 14 3f bb a8 69 3e cb 2c 98 bf
       -0.5581252 0.5796433 0.22818272 -1.188867
000270 e9 9f 52 bd 2d 7f fd 3e 66 71 1e bf 40 06 bb be
       -0.051422033 0.4951109 -0.6189178 -0.36528206
000280 97 44 7b be 31 63 5b 3e ca 4d fe bb c6 39 28 bf
       -0.24537884 0.21424557 -0.007760738 -0.65713155
000290 13 32 c2 bf c2 87 32 bf a2 d2 33 be a3 32 69 be
       -1.5171531 -0.697384 -0.17560819 -0.22773223
0002a0 ca 16 25 3f 2e 81 09 3f fe 1c 03 bf 86 0d 2d 3f
       0.644879 0.5371274 -0.51216114 0.6759876
0002b0 5c 76 ff 3e 11 b0 5b 3e fe d0 5b 3e 60 0d 17 bd
       0.4989499 0.21453883 0.21466443 -0.03687799
0002c0 39 61 ba 3e 7e 64 0e 3f 34 79 ea 3e 12 8e 2b bf
       0.364023 0.5562209 0.45795596 -0.6701366
0002d0 d1 60 ef 3e 1d 59 7d 3d d1 c7 b8 be 86 3e b1 3d
       0.46753553 0.061852563 -0.36089948 0.086545035
0002e0 30 6d a6 3e fd 6d fc 3e 62 99 a6 bd 19 9b 69 bf
       0.32505178 0.49302664 -0.08134724 -0.91252285
0002f0 cd bd 75 be c7 a7 75 be bb a4 ca 3e 80 75 49 3e
       -0.23998185 -0.23989783 0.39578804 0.19673729
000300 75 02 eb 3d 4c ed 86 3e cb 4f 1b be 26 81 38 be
       0.11475078 0.26352918 -0.15167157 -0.18018016
000310 5d 48 7a 3e 96 c8 07 bf e2 66 6c 3f ad f3 41 3f
       0.24441667 -0.53040445 0.92344487 0.75762445
000320 88 21 b7 bd 3c 32 af 3d 89 2c 8a 3d 58 b6 79 3e
       -0.089419425 0.08554503 0.06746776 0.24385965
000330 39 d4 12 bf 63 c7 b0 be d4 78 1f bf 89 2d 3f 3e
       -0.57355076 -0.3452712 -0.62293744 0.18669714
000340 c5 19 88 3e 5a 9d 06 bf 67 47 01 bd 5f 5b a8 3e
       0.2658216 -0.5258385 -0.031562235 0.3288221
000350 74 67 33 bf ee ed 45 3e 87 cd 28 bf 86 32 9e bd
       -0.7007973 0.19329044 -0.6593861 -0.0772448
000360 4a 1e 8e 3d 1f c6 42 3e 8e 0e 47 bd b6 79 c4 bd
       0.06939371 0.1902089 -0.048597865 -0.09593527
000370 89 b6 92 3e 64 c2 74 3e 45 48 f7 3c 13 48 88 bf
       0.28654888 0.23902279 0.030185828 -1.0646995
000380 ad 01 28 bf 29 18 24 3f 81 80 a4 bd 16 65 06 3c
       -0.6562756 0.64099365 -0.08032323 0.008202812
000390 55 4e 59 3f 25 36 15 3e 2e c3 e0 3e e3 3d e2 be
       0.8488515 0.14571436 0.4389891 -0.4418784
0003a0 fa 0a 2c be 61 78 4f 3e 60 9a a6 be 03 30 2e 3f
       -0.16801062 0.20260765 -0.32539654 0.6804201
0003b0 c3 bc 8b be ed 32 c2 be 92 e7 a0 3e 59 99 24 3e
       -0.2729245 -0.37929478 0.31426674 0.16074122
0003c0 8d d6 46 3e f3 47 0d 3f 43 74 23 bf 63 9d 89 bd
       0.19417782 0.5518791 -0.63849276 -0.06719472
0003d0 60 f0 bc 3e df b2 8c bc 7e 44 67 be 00 01 28 3f
       0.36902142 -0.017175136 -0.22584721 0.65626526
0003e0 77 e7 f8 be fe bd 5a bd 1a be 2f be bb d4 bc be
       -0.48614094 -0.053403847 -0.17162362 -0.3688105
0003f0 a5 3a 74 be dc 07 75 3d 87 c9 9e bf 98 f3 1f bf
       -0.23850496 0.05982195 -1.2405251 -0.6248107

weight_hh_l0 f4 [64, 64]
000000 38 65 54 3b 74 47 28 3e 3f 7e e6 3b ff e9 67 3d
       0.0032408964 0.16433507 0.0070340927 0.05661964
000010 f3 d2 bc bd 98 7d 84 bd 5a 00 b2 be 40 3c 6c 3c
       -0.09219923 -0.064692676 -0.34765893 0.014418662
000020 67 d3 13 3e cf 14 32 be 4b 8f 0c 3e 1f d1 de bc
       0.14436112 -0.1739075 0.13726537 -0.027199326
000030 63 eb 32 be e9 81 3f 3d 32 ac 1f be 00 74 dc bb
       -0.17472605 0.04675475 -0.15593031 -0.0067276955
000040 d7 e4 18 3d ad 4a 84 3c 5a f2 c5 3c 55 c3 c9 3d
       0.037327614 0.01614889 0.024163414 0.0985171
000050 42 e3 1c 3e c2 a1 d0 bc 6c 73 83 3c 95 69 34 be
       0.15321067 -0.025467757 0.016046248 -0.17618401
000060 6b 9c 86 bd 8d 3a 37 3c 1d de 10 3e f7 51 26 bd
       -0.06572803 0.011183393 0.1414723 -0.04060551
000070 1c cf 23 3e d8 f4 f0 3d 88 7b 27 3e 8c f0 63 bc
       0.15996975 0.1176545 0.16355717 -0.013912331
000080 e7 05 8d 3c 75 01 9a 3d 36 a0 c8 bc 2e 8d 8e bc
       0.017214729 0.07519809 -0.024490457 -0.017401304
000090 00 e1 44 be 17 56 d6 bd 1f 57 e3 bd 73 6e 83 3d
       -0.19226456 -0.10465639 -0.111006014 0.06417551
0000a0 2a ea 0b 3d 0c e5 81 bb 49 44 3e 3c 2e a6 83 bc
       0.034158863 -0.003964072 0.01161296 -0.016070452
0000b0 b9 d6 21 3e 5a 9c ad bd be d5 43 3d c6 77 4f be
       0.15804566 -0.08477087 0.047811262 -0.20260534
0000c0 01 09 0f bd a7 c4 08 3e f3 3e 52 3e a2 51 0b bd
       -0.034920696 0.13356267 0.20531826 -0.034013398
0000d0 2a df a9 bc db 62 73 be 41 34 1d 3e c3 ff bc bc
       -0.020736296 -0.23768179 0.15351965 -0.023071175
0000e0 6e 4c 07 bb c8 31 f3 bc 6c b1 2f 3e b7 e1 0a 3d
       -0.002064492 -0.029686823 0.17157525 0.033906665
0000f0 bf 48 21 3d ab 63 36 3c c2 5f af 3b 24 a7 4f be
       0.039376017 0.011132161 0.0053519914 -0.20278603
000100 39 42 88 3c b9 fb 35 be 62 54 6c bd 37 c0 c8 3d
       0.01663314 -0.17771806 -0.05769766 0.09802287
000110 30 f0 67 be d8 b1 58 3e 9d 96 0a bc 07 76 96 be
       -0.22650218 0.21161592 -0.008458761 -0.29386923
000120 18 43 ca 3d aa 0f 0a bd cf 42 4f 3e eb aa 5a 3d
       0.09876078 -0.033706345 0.20240329 0.053385656
000130 60 f1 fe 3d 43 bb 14 3d 6a 4c c5 3e 35 8e 54 3e
       0.124483824 0.0363114 0.38534862 0.20757373
000140 fc 2f 98 3d 6b 20 25 3e 11 f7 9f bd 4e 0f f8 bd
       0.07431027 0.16125648 -0.07810796 -0.12112294
000150 65 03 5f bd 1b 70 bd bd 4b 4c b8 bd ab 0f 10 be
       -0.054446597 -0.09249898 -0.08998927 -0.14068477
000160 67 45 33 3e c9 02 c3 bd 29 b2 1e be b4 d7 cf 3e
       0.17506944 -0.095220156 -0.1549765 0.40594256
000170 d8 57 f5 bd ac 88 5d bc 09 57 78 3e bd 2f 6b 3e
       -0.119796455 -0.013521355 0.24251951 0.2296743
000180 4f ac 40 be 1d 24 18 3d 72 4e 88 3d 5a 49 3c be
       -0.1881573 0.037143815 0.06655587 -0.18387356
000190 48 c1 5f be f0 bf 0e be 22 5f 11 be a1 53 61 3b
       -0.21851075 -0.13940406 -0.14196447 0.0034382122
0001a0 e0 9c 55 be b7 25 a0 3e f6 03 4c 3d a4 5c 99 bd
       -0.20860624 0.31278774 0.049808465 -0.07488373
0001b0 df 39 30 be 6a 65 d2 3d 48 5d 65 3e aa 54 6a 3e
       -0.17209576 0.102732494 0.22398865 0.2288386
0001c0 70 fe 88 be 66 69 84 3b e9 d4 4f 3e 67 f9 eb 3d
       -0.2675662 0.004040885 0.20296063 0.11522179
0001d0 74 48 2e be 1f 25 2e be a1 8b bb 3d ec 9e 1a 3e
       -0.17019826 -0.17006348 0.091574915 0.15099686
0001e0 f6 a5 7c 3e 83 5e bc bd 85 fc 09 be 01 e2 6d 3e
       0.24672684 -0.09197714 -0.13475235 0.23230745
0001f0 a6 52 80 3d ab 62 d4 3e 32 19 74 be 0f 05 2d bd
       0.06265764 0.41481528 -0.23837736 -0.042241152
000200 4f 6e db 3e 87 cc 0e be 25 14 f3 3d ca a6 89 be
       0.42857596 -0.13945208 0.11869077 -0.26885062
000210 32 f6 99 3e da b5 b8 3d 4b a9 74 3d ee 25 19 3d
       0.30070645 0.090190604 0.059731763 0.03738969
000220 c3 7b 53 bd cd b0 ba bd a3 f0 88 3d af 38 ed 3d
       -0.0516317 -0.09115753 0.06686523 0.11583077
000230 d0 d6 9b bd 8a 96 37 3e 90 28 60 be a0 95 a2 3b
       -0.076093316 0.1792852 -0.21890473 0.0049616843
000240 8f d2 27 3c d1 f0 40 3e 24 d3 e7 bd df da 9a bd
       0.010243072 0.18841864 -0.11319569 -0.075612776
000250 3c c7 27 be bf cb db 3d 6a ab a6 3d ad ff 25 be
       -0.16384596 0.10732221 0.081381634 -0.16210814
000260 7f f4 6e 3d 1d a7 50 be a0 28 92 3c 31 19 87 be
       0.05833864 -0.20376249 0.017841637 -0.26386407
000270 92 92 8a 3d 1c 88 39 be 7c 4d 94 be 51 b6 96 be
       0.06766237 -0.18118328 -0.28965366 -0.2943597
000280 e8 33 2e 3c ed 54 88 3e 4e c4 58 3d ab 0d a2 bd
       0.010632493 0.26627293 0.052921586 -0.07912763
000290 78 3f b1 bd e5 ef cd bd 51 e3 2d 3d e9 fb fc bc
       -0.08654684 -0.10055522 0.042453114 -0.030881839
0002a0 51 74 8e bd 0d 9d 08 3e 66 28 25 bc 11 0e d3 be
       -0.06955779 0.1334116 -0.0100804325 -0.4122167
0002b0 1c e9 d4 bd 4f 64 1e be 6d f7 a9 3b 3a 2f 10 3e
       -0.103960246 -0.15467952 0.005186966 0.14080516
0002c0 14 93 3c be e0 e5 58 bd 9d af 1a 3e ee 6d 19 3e
       -0.18415481 -0.0529536 0.15106054 0.14983341
0002d0 dd b9 f7 be 27 3f 40 3e c3 b6 b2 3d f6 95 ef bd
       -0.4838399 0.1877409 0.08726265 -0.11698525
0002e0 5e f6 7f bd fe e9 ba bd 1b 8e 84 3e 88 f4 47 3e
       -0.062490813 -0.09126662 0.25889668 0.19526875
0002f0 51 54 27 3e 4c f9 0f 3d ea ce d8 3e e5 a2 e6 3d
       0.16340758 0.035149857 0.42345363 0.112615384
000300 32 19 a0 3e e7 fd 93 bd e9 9f a9 bd 3c 28 f3 bd
       0.31269222 -0.072261624 -0.082824536 -0.118729085
000310 ea 5c 5e bd f1 3a 70 3e c6 24 44 3e 0c 07 47 bc
       -0.05428783 0.23459984 0.19154653 -0.012147676
000320 59 ea 15 be 7b ba d4 3d 35 58 6d bd a4 d4 99 3e
       -0.14640178 0.10387131 -0.05794545 0.30045044
000330 14 20 37 bd 3f 55 58 3e 66 5c 9b 3e 4c ef 36 3d
       -0.044708326 0.21126269 0.30343932 0.044661805
000340 94 71 8a bd 5a e6 79 3d 00 ce 22 be 68 f8 53 bd
       -0.067599446 0.061010696 -0.15898895 -0.05175057
000350 4a 67 04 be 69 7f aa 3d d3 76 97 3e 97 54 77 3e
       -0.12930027 0.08325083 0.29582843 0.24153362
000360 e9 40 b5 3d 99 4b 0e bd e2 76 99 be 0e 9d 70 bd
       0.08850271 -0.034740064 -0.29973513 -0.05874353
000370 84 d8 a1 3e f9 b7 25 be 0b bc 53 3e 0e 62 65 3e
       0.316105 -0.16183461 0.20677201 0.22400686
000380 c6 0d 02 3e 0c c1 73 be e6 ca 94 be a8 97 27 be
       0.12700567 -0.2380411 -0.2906105 -0.16366446
000390 f3 7a 53 3c da af 15 3e 0d 01 4a 3c 91 06 e1 be
       0.012907731 0.14617863 0.012329352 -0.43950322
0003a0 62 60 3a 3d a2 9e 9b be 64 a9 31 bd 37 59 5d bd
       0.045502074 -0.30394465 -0.043374434 -0.05404016
0003b0 b5 44 bc bd f7 0c c4 3e e9 11 94 bd 7f 2f 50 be
       -0.09192792 0.3829114 -0.072299786 -0.20330618
0003c0 e7 26 8c 3e 18 40 1b bc bf 86 8d 3d c1 11 8d bd
       0.2737343 -0.00947573 0.069104664 -0.06888152
0003d0 b9 10 b1 bd 04 21 32 3d 30 d1 3a bb 45 34 b4 3e
       -0.08645768 0.043488517 -0.0028506033 0.35196128
0003e0 14 f0 06 be 74 2c f5 3c 95 7d 5b 3e ba 93 07 be
       -0.1317752 0.029928423 0.21434624 -0.13239947
0003f0 c7 40 03 be 07 60 e7 3c d0 fc 09 3e 81 3b 09 be
       -0.1281768 0.028244032 0.13475347 -0.13401605

bias_ih_l0 f4 [64]
000000 e1 f3 16 be 60 23 29 3e 33 3e 81 3d 79 a4 81 be
       -0.1474147 0.165174 0.06310692 -0.25320795
000010 7e f5 2e 3d a1 08 2a 3e 33 55 16 be e1 c9 bc bc
       0.04271459 0.16604854 -0.14680938 -0.023045482
000020 e2 3f c1 3b 31 b6 01 bd 03 52 b8 bd 62 a8 98 be
       0.005897508 -0.031667892 -0.090000175 -0.29815966
000030 40 ca 1c 3d 00 eb 9d 3d 0f ba 7f bf 27 4f 31 be
       0.038278818 0.07710838 -0.9989328 -0.1731535
000040 7d 5a 3e be 2b f9 b4 bc 23 a7 13 be b5 72 98 bc
       -0.18589206 -0.022091469 -0.14419226 -0.018609384
000050 e2 49 13 be d2 6e 8c bc 1e a8 9c bc 4b f0 48 bc
       -0.14383653 -0.017142687 -0.019123133 -0.012264322
000060 5d 93 7b be 7c af e1 3d 38 8b 56 3d bd 43 e0 bd
       -0.24567933 0.11019799 0.052378863 -0.1095042
000070 2d 0f a3 bd 08 74 f3 3d db 3d 5a be 01 3c aa 3c
       -0.07961879 0.118873656 -0.21312658 0.020780565
000080 9b 48 14 be ca 38 d6 3d 36 d7 4d 3d b6 2b 08 3e
       -0.14480822 0.104600504 0.05025407 0.13297924
000090 d7 36 2f be da 65 e3 3d 1d 01 cf bd 74 5a 0d 3e
       -0.17110763 0.11103411 -0.10107634 0.13804036
0000a0 e9 82 a6 3d 40 62 45 bd 47 07 fe 3d 61 a6 34 3e
       0.08130438 -0.0481894 0.12403732 0.17641594
0000b0 17 9d 80 3a ad c4 f0 bd 6b 7a 86 bd 2f 1e 74 3e
       0.0009812441 -0.11756263 -0.06566318 0.23839639
0000c0 15 74 7b be d1 85 1a be f9 a2 c2 3d 9b d8 63 be
       -0.24556 -0.1509011 0.09503741 -0.22250597
0000d0 a2 78 fd 3c 77 0b b5 b9 dc cc 43 be 6e c3 62 be
       0.030941311 -0.00034531552 -0.19121116 -0.22144863
0000e0 e7 c1 80 3e 37 54 df 3d 17 4c 86 3e 57 60 86 bd
       0.25147936 0.109047346 0.26229927 -0.06561344
0000f0 a9 e5 c4 bc 80 c8 88 bc 51 1c 8f 3d 36 45 68 bd
       -0.024035292 -0.016697168 0.06987823 -0.05670663

bias_hh_l0 f4 [64]
000000 91 2c b8 ba 8b c5 7a 3d d9 f3 ec 3d 42 2f 80 be
       -0.0014051368 0.061223548 0.11569948 -0.25036055
000010 d7 a0 65 3d db 28 86 3e ba ab d6 bd ee c6 06 3c
       0.056061592 0.26203045 -0.10481973 0.0082261395
000020 76 fd d4 bd fa 9c 38 be 3c 0e eb bc 48 7c 70 be
       -0.10399906 -0.18028632 -0.02869331 -0.2348491
000030 0e 77 a5 3d c2 23 8d 3d 2e 33 4e bf a0 b8 3c be
       0.080793485 0.06891586 -0.80546844 -0.18429804
000040 02 cb f2 bd c8 58 9a 3b 49 99 64 bc 6b 10 90 bc
       -0.11855127 0.0047102906 -0.013952562 -0.017585954
000050 09 14 a8 3b 5b 1e 93 3d f0 14 03 3b a4 60 36 3d
       0.0051293415 0.07183524 0.0020001493 0.044525757
000060 f4 08 0d be b2 a6 34 3e 9b 2c 82 bd 68 49 68 3d
       -0.13772947 0.17641714 -0.06356164 0.05671063
000070 f2 4a b0 3c 27 23 2f 3d df bc 1e be bd a6 4f 3c
       0.021520112 0.042758133 -0.15501736 0.012674031
000080 d8 89 40 be a5 15 bb 3d 0a 34 04 3e 96 62 1d 3e
       -0.18802583 0.09134988 0.12910476 0.15369639
000090 1d b6 5d bd 06 4d 59 3d c0 a2 f2 bc a1 b2 d8 3d
       -0.054128755 0.05305197 -0.02961862 0.10580946
0000a0 eb 7c d0 3b 10 07 80 3d 86 88 24 3e 71 ab 5c 3e
       0.0063625476 0.06251347 0.16067705 0.21549775
0000b0 a0 e6 0c 3e f8 1b 1e be 60 8f 00 3a 67 c5 db 3d
       0.13759851 -0.15440357 0.0004904177 0.10731011
0000c0 af 37 24 be 6a 3a 11 be 4f bf 8c bd 92 c0 1b bd
       -0.16036867 -0.1418244 -0.06872427 -0.038025446
0000d0 52 a7 3d bd d4 e1 e1 3b 9c 37 f3 bc 93 3f e2 be
       -0.046302147 0.006893376 -0.029689603 -0.44189128
0000e0 81 0f a6 3e ca 82 60 bc d0 8a 5a 3e 4f db 18 bd
       0.32433704 -0.013703058 0.21342015 -0.037318524
0000f0 16 f4 29 bc 18 64 fa ba c6 d0 b2 3d 48 c2 43 3d
       -0.010373136 -0.0019103317 0.087312266 0.047792703

weight_ih_l1 f4 [64, 64]
000000 24 f7 31 be 49 e6 b5 bd 0e 67 79 3e 01 92 22 3a
       -0.17379433 -0.08881814 0.24355718 0.0006201566
000010 7f f5 b2 3d f5 37 8a 3e 06 46 61 3e 6f 18 43 3d
       0.08738231 0.26995817 0.21999368 0.047630724
000020 81 f2 0c bd b8 e1 df 3d 54 81 61 be 71 41 ad 3e
       -0.034410957 0.10931724 -0.22021991 0.3383899
000030 b4 d9 f6 3d f2 fe d1 bd 2b c4 53 be f0 da e6 3e
       0.12053242 -0.10253705 -0.20680301 0.4508891
000040 c0 fc bd 3d 2b a3 0a be 90 57 d8 bd 3e 70 89 be
       0.09276724 -0.13538806 -0.10563576 -0.26843446
000050 1f cf 80 3d c8 6b d5 be 93 02 db bb 99 41 6b be
       0.06289505 -0.41683793 -0.0066836565 -0.22974242
000060 ff d1 1b 3c 08 51 8a bd 96 fd b6 3c 53 dc 50 3e
       0.009510516 -0.06753737 0.022337716 0.20396547
000070 b7 65 c0 be 1c b7 94 bb 89 68 8c be 85 0e db 3c
       -0.37577602 -0.00453843 -0.27423504 0.026740322
000080 37 07 3e 3e 0a 59 b6 3d 3f cb 7d 3e db 37 89 bc
       0.1855744 0.089037016 0.24784563 -0.016750267
000090 9b 07 b7 3d 5a 05 bd 3e 99 77 27 3c f0 85 ea bd
       0.089369975 0.36918145 0.010221385 -0.11451328
0000a0 f4 39 e1 3d a5 ef 0f 3e 9d ac 61 bb 77 85 cb be
       0.10997382 0.14056261 -0.003443516 -0.39750263
0000b0 ea f7 f6 bd 53 a8 a5 3e 35 6f ca bd b2 51 28 3d
       -0.120590046 0.32354984 -0.09884492 0.041093536
0000c0 d0 c5 dc 3d 4e d7 4d 3c 94 5b c4 3e a4 e4 f2 3d
       0.10779917 0.01256354 0.3835112 0.11860016
0000d0 b6 76 aa 3e 19 57 8a 3d f8 2c 49 3e 62 70 1d be
       0.33293694 0.06754894 0.1964606 -0.15374902
0000e0 da ab cc bb d0 a1 33 be e0 93 91 bc 3f 38 94 3d
       -0.0062460722 -0.17542195 -0.017770708 0.072372906
0000f0 8e 7a 7c 3e aa 6d 1d 3e d4 20 72 3d 19 55 81 3c
       0.24656126 0.15373865 0.05911334 0.015787648
000100 6b 84 fc bd d9 b3 07 3f 2e 61 e8 be 77 61 03 3e
       -0.12329944 0.530088 -0.45386642 0.12830149
000110 b0 91 10 be ed 60 cf bd 83 75 a1 bd e0 78 08 3c
       -0.14118075 -0.10125909 -0.07883742 0.0083296
000120 cc 8c e6 3d b4 63 0d 3e 12 aa 86 3c c3 96 bf be
       0.112573236 0.13807565 0.016438518 -0.3741971
000130 3f 4e a4 be 1d d7 cc 3c 9f 27 34 3e 6d a1 08 3d
       -0.32090947 0.025004918 0.17593239 0.033357073
000140 f9 ea b2 3e 43 b0 06 3e 0d 29 fe be 1e e5 b5 3d
       0.34944895 0.13153176 -0.49640694 0.08881591
000150 fa 00 0f be 80 44 c2 3d 2f 90 14 3e 87 e7 13 3e
       -0.13965216 0.094857216 0.14508127 0.1444379
000160 c8 8e 9f 3e 47 38 28 bb b6 6c fb 3d e6 91 c0 3d
       0.3116362 -0.002566831 0.12276594 0.09402828
000170 32 f0 9b be be 0d bc 3c 88 30 c0 3c d1 0a 00 3e
       -0.30456692 0.022955772 0.023460642 0.12504126
000180 c8 b7 30 3d 8c be c7 3e fe de 61 be b2 76 0e 3f
       0.043144017 0.39012563 -0.22057721 0.55649865
000190 d5 73 e7 be 09 1f de 3d bc 71 49 be 1e 77 22 3e
       -0.4520556 0.10845763 -0.19672292 0.15865752
0001a0 47 0f 71 3d 41 54 e4 3d 16 0f 1c bc 43 93 67 3c
       0.05885246 0.11148883 -0.009525081 0.014134231
0001b0 d1 bf f8 3d ff cd 65 3d e8 08 3c 3e 2b 1b 93 3d
       0.12145961 0.056104656 0.18362772 0.07182916
0001c0 06 c2 59 3e ab 7b da bc 06 8e 18 be 8e 66 8c 3d
       0.2126542 -0.026670298 -0.14897928 0.06855498
0001d0 e4 e2 a5 3d e8 9d ed bd e8 80 08 3e 83 df f5 3d
       0.080999166 -0.11602384 0.13330424 0.12005522
0001e0 db cc bb 3c 5c 63 bf bd 85 e7 6c be bd 6d 45 3e
       0.022924831 -0.09345123 -0.23135193 0.19280143
0001f0 6e 05 01 3e 77 98 e4 3d 49 c2 2f 3d 2f e1 cc bd
       0.12599728 0.11161893 0.042909894 -0.10003888
000200 e1 6d 1e 3d 6c 40 61 3e f1 94 ad be 0a cb 69 bd
       0.038679007 0.21997231 -0.33902696 -0.0570784
000210 77 79 c5 bd 76 f1 08 3e 42 d9 ad bc 68 c8 ff be
       -0.09642308 0.1337336 -0.02122176 -0.49957585
000220 94 ba ec bd 5c 87 bf 3e a7 fa be bb c6 21 b1 bd
       -0.115590245 0.37407959 -0.00582822 -0.0864902
000230 ac f3 e5 bd 6f a6 b8 bd c0 58 a7 3d c3 c0 9c bd
       -0.11228117 -0.0901612 0.081712246 -0.07653954
000240 e7 1f 85 bd 41 b9 14 3e 33 23 ae 3d f5 15 47 3d
       -0.065002255 0.14523794 0.085028075 0.048604924
000250 8d 4f 9d 3e 4e 8e fc bd 4f 27 9e 3e 3b 47 2c 3e
       0.30724755 -0.1233183 0.30889365 0.16824047
000260 91 b3 8c 3c 5d e9 8c 3d 10 5b e5 3e ce 44 47 3e
       0.017175468 0.06880448 0.44796038 0.1945984
000270 f7 a4 98 bc ae 7d 86 3d 5b 03 46 bd ac b1 e6 bd
       -0.018633349 0.0656694 -0.048343044 -0.11264357
000280 75 9c cd be dc 64 e1 3d d9 ab cc be 51 20 e3 3d
       -0.4015843 0.110055655 -0.3997486 0.11090148
000290 0e 14 75 3d 45 c2 cb ba 16 16 f3 3e f4 7f 2c 3e
       0.05983358 -0.0015545568 0.47477788 0.16845685
0002a0 4d 16 5a 3e ec ea b9 3e 6f b6 b1 3e 0c 8b 76 3e
       0.2129757 0.36312044 0.34709498 0.2407648
0002b0 a4 23 51 3d e7 9b 4d 3e b4 4a 24 3e 25 ce d5 3d
       0.05105938 0.20079003 0.16044122 0.104397096
0002c0 b6 a2 5b be df 81 45 3e c4 44 0f be 56 8c 4b be
       -0.21448788 0.19287823 -0.13991076 -0.19877753
0002d0 4b 20 60 3b 8c 03 38 3e ec 26 ef 3d d7 95 2b 3e
       0.0034198936 0.17970103 0.11677346 0.16756378
0002e0 a3 d5 b8 3e 40 04 81 3d 29 11 30 be 99 31 44 be
       0.36100492 0.06299639 -0.17194046 -0.19159545
0002f0 2e 81 82 be 4a 28 bf be 39 ba 5a bd c5 66 3c be
       -0.2548918 -0.37335426 -0.053400252 -0.18398578
000300 78 c4 04 be cd e9 35 3e b1 62 73 3e df 11 ea 3e
       -0.12965572 0.17764969 0.23768117 0.4571676
000310 aa 72 a1 bd 5c 0f 14 3e ba 15 85 3d 87 63 ca be
       -0.078831986 0.14458984 0.06498285 -0.39529058
000320 31 9f 1b 3e 3e 33 4a 3e 71 34 6f 3e e6 25 1a be
       0.15197445 0.1974611 0.23359849 -0.1505352
000330 94 73 b1 3e 51 a3 84 3e 88 0a ee bd 17 e4 9c 3d
       0.34658492 0.2590585 -0.116231024 0.07660692
000340 cc 61 86 3e 55 a7 1e 3d 16 5c e9 3d 35 60 59 3e
       0.26246488 0.0387338 0.11394517 0.21228106
000350 c0 cf 84 be ca 83 c4 be b7 b5 09 be d0 12 96 be
       -0.2593975 -0.38381797 -0.13448225 -0.29311228
000360 e2 01 de bd 22 b1 f1 be d9 36 a2 3d 6e f7 52 bd
       -0.10840203 -0.47205454 0.079206176 -0.0515055
000370 3a c2 3a be 1d dc 9f 3e 21 d4 0d 3e 3b ce 8b 3e
       -0.18238154 0.3122262 0.13850452 0.2730578
000380 3e ee 77 3e e9 b5 41 be 4e c3 2e bd 1c 86 09 be
       0.24211976 -0.1891705 -0.042666726 -0.13430065
000390 7c 32 e9 bd ca c5 19 3e e8 d2 24 be 50 65 8d 3d
       -0.11386582 0.15016857 -0.1609608 0.069040895
0003a0 3a 2d 6a be 9f 55 c1 bd 32 7d 70 bd 2a 1f 1b bd
       -0.22868815 -0.09440159 -0.058713146 -0.037871517
0003b0 e7 50 bc bd 1f 02 b8 3e 58 3c d5 3e 90 5e 51 3e
       -0.091951184 0.35939118 0.416476 0.20446229
0003c0 05 5e 59 be 32 d9 2b be d6 26 ed 3c 7e 38 24 be
       -0.21227272 -0.16782072 0.028949182 -0.16037175
0003d0 50 9a 1c bd fa 2a 49 be dc 5e bb bd fa f2 61 be
       -0.0382331 -0.196453 -0.09148952 -0.22065344
0003e0 26 e3 34 3e 6d 7b 95 be f9 eb 7e be 48 8b 89 bd
       0.17664775 -0.2919573 -0.24894704 -0.06716019
0003f0 42 a1 43 bc e5 96 34 3e 22 d6 a9 3d 56 b8 2c 3c
       -0.011940302 0.17635687 0.08292796 0.010541996

weight_hh_l1 f4 [64, 64]
000000 84 35 e7 bd 81 70 69 bd e0 df 3c be 5f 3b 6c 3e
       -0.11289504 -0.056992058 -0.18444777 0.23069523
000010 1a 4e d1 bd 46 32 de 3d f7 4e 06 3d 3e 04 13 3c
       -0.10219975 0.10849433 0.03279015 0.008973179
000020 31 c0 8c bd 99 25 af bd ca 0f 25 3e bf b6 39 3d
       -0.06872595 -0.08552093 0.16119304 0.045340296
000030 3d f6 1e be d3 55 1a 3d 79 d7 33 3c 89 1f d8 3d
       -0.1552362 0.037679505 0.010976666 0.1055289
000040 30 8e b7 3e 66 51 e2 3d 76 29 31 3e 2f 3a f4 3d
       0.35850668 0.11050682 0.17300972 0.1192516
000050 2b 4e 28 bd e5 1a 15 3d 6f 40 e1 3d dc 4c 21 3d
       -0.04109017 0.0364026 0.10998618 0.03937994
000060 10 5a 88 3d 94 0b ff 3d 4d fd 4d be 03 8b 5f 3e
       0.06657803 0.1245338 -0.20116158 0.21830373
000070 44 db 94 3e bb 7b 79 bd 9c d5 4a bd 03 5f 88 bd
       0.29073536 -0.060909014 -0.04952012 -0.06658747
000080 09 ca 46 be 29 a9 72 bd 00 6b 7b be 68 cb 00 3e
       -0.19413008 -0.059243355 -0.24552536 0.12577593
000090 c2 e6 80 be 0f b1 ac 3d 63 c3 a4 3d 97 a2 dd bd
       -0.25176054 0.08432209 0.080450796 -0.10822027
0000a0 78 d8 de 3d 25 7a 52 3e 9f 0f 80 be 36 ee 87 be
       0.10881132 0.20554407 -0.25011918 -0.26548928
0000b0 39 b2 dc bc 02 6e 70 be 56 97 af 3d 87 c4 35 be
       -0.026940452 -0.23479465 0.08573787 -0.1775075
0000c0 01 e4 3a 3e ba 74 12 3e f8 07 d1 be f2 69 7a 3d
       0.18251039 0.1430234 -0.40826392 0.061136194
0000d0 bb 4c 08 bd 03 0a 36 3d 07 d5 82 3b 4f 11 e3 3d
       -0.0332763 0.04444314 0.00399268 0.11087286
0000e0 6c 9f ae 3d ae 8c 74 3d 72 36 09 3e bc 12 0e 3f
       0.08526501 0.059704475 0.13399675 0.55497336
0000f0 19 d1 1a bd e9 b5 91 3c a6 6a 34 be b9 ad dd 3a
       -0.037797067 0.017786937 -0.17618808 0.0016912735
000100 01 42 d5 bd bf 2b a8 bd 46 13 86 be 78 80 c0 3d
       -0.1041298 -0.08211469 -0.2618658 0.093995035
000110 c6 15 72 3e 86 77 43 3d 29 0f bc bc 39 32 a8 3d
       0.23641118 0.04772141 -0.022956448 0.08212704
000120 10 97 53 3e 77 15 d0 3d 81 6c ae bc 8a 9e 97 3e
       0.20663095 0.10160344 -0.021291973 0.29613143
000130 a5 18 4d 3e 65 6d 31 be 51 70 be bd 76 42 5c 3d
       0.20028932 -0.17326887 -0.092987664 0.05377432
000140 25 ac 23 3d 49 24 27 3e af 6d 2a be 06 ec 34 be
       0.03995909 0.16322435 -0.16643403 -0.17668161
000150 84 75 a3 3d e2 49 2c 3d 3f 2c 23 3e de 0b b0 3d
       0.07981399 0.042062648 0.15934847 0.085960135
000160 dc 1e 90 3e 3d ae 11 be 5d c7 b7 3c 08 c3 55 be
       0.28148544 -0.14226623 0.022433931 -0.2087518
000170 61 c9 d7 3d 15 9a 9a 3d 4c 8d 51 bd 45 fd 74 3e
       0.10536457 0.0754892 -0.05116014 0.2392474
000180 97 92 84 3d c3 4f 85 3d 44 78 87 3e 3d be 9d bd
       0.06473272 0.06509354 0.26458943 -0.07702301
000190 b8 60 a6 3d 68 ed 82 3d 9c a2 84 3e a6 02 8c bd
       0.081239164 0.06392938 0.2590531 -0.06836443
0001a0 89 f3 70 be 01 16 ae 3b f9 1b df 3c 6c 35 7e 3d
       -0.23530401 0.0053126817 0.027235018 0.062062666
0001b0 bc d6 9c be 18 f0 83 be 06 53 38 bd be 42 b5 bd
       -0.3063258 -0.25769114 -0.045001052 -0.08850621
0001c0 c0 82 14 be 6b f0 c5 3e 4f 6e 6e 3d dc 2c 61 3e
       -0.14503002 0.38659987 0.058210667 0.21989769
0001d0 ef f1 a6 bd 7c c2 31 3e 86 cf 25 3d 01 58 04 be
       -0.08151614 0.17359346 0.040481113 -0.12924196
0001e0 8e d2 82 be 59 8d 8c be dd bb a6 3e 36 46 84 3e
       -0.25551265 -0.2745159 0.32565203 0.25834817
0001f0 8f 2e e4 bd a3 bb 2b be a6 f6 56 3e 37 22 45 3e
       -0.11141693 -0.16770796 0.20992526 0.19251333
000200 0f 1d ca 3a ac 0a 2e 3e a9 c5 0d bd 6b 20 a9 bd
       0.0015420037 0.16996258 -0.03461233 -0.08258136
000210 a0 30 19 3d fd 01 6e 3e 3f 42 16 3d a5 d3 e9 3d
       0.037399888 0.23242946 0.03668427 0.11417321
000220 73 d8 99 bd 27 15 c5 bd 25 42 5b bd 69 9f 81 bc
       -0.075119875 -0.09623175 -0.053529877 -0.015823083
000230 c1 a9 33 bd fc 3d 6a 3e 6b a2 ea bd f5 7d 99 bd
       -0.04386306 0.22875208 -0.1145676 -0.074947275
000240 5f 3a c3 be 1e fe ae 3d be 45 46 3e b7 b7 72 3e
       -0.3813047 0.08544563 0.19362542 0.23702894
000250 56 b2 55 be aa d1 d0 be 12 da a0 be 39 20 a5 bd
       -0.20868811 -0.4078496 -0.31416374 -0.080627866
000260 2a fe 55 be 39 5c 27 be 69 c6 d3 3e 71 26 be 3c
       -0.20897737 -0.16343774 0.41362312 0.02321169
000270 2a ff 15 be 03 c3 8f 3c 60 ce b5 3d d5 c2 13 bc
       -0.14648119 0.017549044 0.088772535 -0.00901862
000280 2b 4b 52 3e 19 4c bb be 1f a5 ab 3d 24 ed bd 3e
       0.20536487 -0.36581495 0.08381104 0.37094986
000290 f0 77 98 3e 38 fa 0d 3e 81 58 af 3e 29 4d fb bd
       0.29779005 0.13864982 0.3424721 -0.122705765
0002a0 a3 22 23 be af b1 f3 bd d3 12 eb be f3 02 a9 bd
       -0.15931182 -0.11899125 -0.459128 -0.08252516
0002b0 33 66 80 be a3 e2 33 3c 0d 6f d7 3d 1c 69 89 3d
       -0.25077972 0.010979327 0.10519228 0.06709501
0002c0 e9 cd 13 3e e7 5a 86 bc cb 57 d5 3d 18 4c c2 bd
       0.14434017 -0.016400767 0.10417136 -0.0948717
0002d0 a1 18 e7 3d df 77 b5 3c a1 53 3e 3e 92 b9 81 3d
       0.112839945 0.022151886 0.1858659 0.06334223
0002e0 bb 85 2e be aa 79 5c bd 10 13 73 3d bf 92 0c bc
       -0.17043202 -0.053826965 0.05934435 -0.008579909
0002f0 93 c9 ad be 6d b4 23 be e5 e8 a7 bd 33 2a 4a 3e
       -0.3394285 -0.15986796 -0.08198718 0.1974266
000300 3f f9 20 be fb 08 ec bd 78 56 22 3e b7 89 a8 bc
       -0.1572008 -0.115251504 0.15853298 -0.02057348
000310 d9 78 0c 3e 3b 13 56 be fa 91 30 be 2a 68 76 3d
       0.13717975 -0.20905773 -0.17243186 0.060157932
000320 e0 ba b7 3e 3d a5 95 3c 62 ba 54 be 9b b0 c8 3d
       0.35884762 0.018267268 -0.20774224 0.0979931
000330 a9 c2 54 3d f4 45 28 3d 32 93 50 3c 10 02 70 3e
       0.051943455 0.041082337 0.012730407 0.23438287
000340 94 d4 ec be 59 47 4b bd 9f ed c0 bc a2 be 64 3d
       -0.46255934 -0.04962859 -0.023550807 0.055845864
000350 d4 70 f4 3d 89 a3 4e be 64 36 d1 bd 3e 65 47 be
       0.11935583 -0.20179571 -0.10215452 -0.19472215
000360 5e 85 54 bd bb b1 f8 bd 0f 86 c4 bd d3 37 3c 3e
       -0.051885 -0.121432744 -0.09595882 0.1838067
000370 b5 f8 f4 bc 4a 97 7f 3c 2a a0 cf 3c af 4b 75 be
       -0.029903749 0.015600035 0.025344927 -0.23954652
000380 42 0a f5 3d 8f 23 ea bd bb 29 ef bd 06 ac 90 be
       0.11964847 -0.114325635 -0.11677881 -0.28256243
000390 8a b5 93 bd bb 66 56 3e fc 97 79 be d8 56 90 3b
       -0.0721236 0.20937626 -0.24374384 0.004404884
0003a0 97 28 13 be 58 84 b9 bd 61 7c 14 bd 2d ec b2 bd
       -0.14370953 -0.09058446 -0.03625143 -0.08736453
0003b0 6a 7d 15 be 29 e4 97 3c 79 56 ed 3c c7 17 54 bc
       -0.14598623 0.018541412 0.028971897 -0.012945122
0003c0 10 0d 5c 3e a1 ae 13 be 21 ff fc bd 65 a5 3d be
       0.21489358 -0.14422084 -0.123533495 -0.18520124
0003d0 b5 cf 36 3e e8 c8 13 be c3 d0 ce be a0 d0 50 3e
       0.17852671 -0.14432108 -0.40393648 0.20392084
0003e0 02 45 8b bd 82 6b 1a be 7f f5 7f 3c 70 0b 51 bd
       -0.068002716 -0.15080073 0.015622496 -0.0510363
0003f0 19 65 a6 be 17 66 f5 bd 42 45 d6 3d b4 c7 da bc
       -0.32499006 -0.11982363 0.10462429 -0.026706554

bias_ih_l1 f4 [64]
000000 0f 7a 2c 3d f3 1b c8 bd 46 94 02 bd 35 63 29 3d
       0.04210859 -0.09770956 -0.031879686 0.041354377
000010 5d a1 87 3d 97 a3 45 3e 21 d7 b6 3d 23 51 48 3e
       0.066225745 0.19300686 0.08927751 0.19562201
000020 83 46 bb bc 12 a0 9e 3d 32 29 e7 3e 4b cd f4 bd
       -0.022860771 0.07745375 0.45148617 -0.11953219
000030 3c 31 d2 bd bb c3 3d bd 2d 89 7f 3e 67 65 73 3d
       -0.10263297 -0.04632924 0.24954672 0.059422877
000040 8e c1 83 be c9 f7 55 be ca a1 eb bd 89 61 08 be
       -0.25733608 -0.20895304 -0.11505468 -0.13318457
000050 a8 df f8 bd 38 d6 f5 bd 60 79 6a be 5f bd 06 be
       -0.12152034 -0.120037496 -0.22897863 -0.13158177
000060 12 ac 61 3e a6 90 6b be ed f0 50 3b e9 e0 1c 3f
       0.22038296 -0.23004398 0.0031881884 0.61280686
000070 9c b2 7d 3b 18 dc a3 3b 17 ee 41 be 43 6e b0 be
       0.0038711196 0.0050006025 -0.1893848 -0.34459123
000080 a0 e0 9c 3c 94 09 f1 3d 0f da 9c bd 8c f1 4f be
       0.019150078 0.11769405 -0.07658779 -0.20306987
000090 32 df 01 be 6e 80 4b 3d b4 9b 34 3e e5 0e 16 be
       -0.12682799 0.049683027 0.17637521 -0.1465412
0000a0 2b e5 84 3e 6b 20 20 be 29 c3 b6 3d 2a b3 ed 3d
       0.2595609 -0.15637366 0.089239426 0.116064385
0000b0 8d 94 39 3e e1 7c 72 3d d9 4c 12 3e c7 e9 14 3e
       0.18123074 0.059201125 0.14287128 0.14542304
0000c0 5c 1e f8 3c f3 bb ee 3d 24 2f da 3e b5 b6 af ba
       0.030287914 0.11656942 0.4261409 -0.0013405891
0000d0 d2 49 32 3e 10 6b 1a be 47 db 2e 3e d0 56 10 bf
       0.17410973 -0.15079904 0.17075835 -0.56382465
0000e0 91 88 cb 3d 0e e1 6f bd 38 a3 04 bd 75 94 af bd
       0.09938157 -0.05856424 -0.03238222 -0.08573238
0000f0 dd 85 9f bd 9a a0 ef bd 25 62 92 bd 47 3c 05 3e
       -0.07789204 -0.11700554 -0.07147626 0.13011275

bias_hh_l1 f4 [64]
000000 3f a1 71 bd 54 23 a0 be e2 34 0c 3e c3 0f 93 3d
       -0.058991667 -0.31276953 0.13692048 0.07180741
000010 da 4d 8a 3d 3f 0b a1 3e 8c ec 41 bd aa a8 2a bd
       0.0675313 0.31453893 -0.04734473 -0.041664757
000020 2e a2 08 3d 16 c5 ee bd 05 89 bf 3e dd 79 b1 bc
       0.03335779 -0.11658685 0.37409225 -0.021664554
000030 bf c9 d9 3c db 65 68 bd a1 06 40 3d 45 51 12 3e
       0.026585458 -0.056737762 0.04688132 0.14288814
000040 a1 04 80 be c7 55 9a be 5b a5 85 bd d0 2a 73 bd
       -0.25003532 -0.30143568 -0.0652568 -0.059367
000050 e0 57 9e 3d ee 7a af bd 9f 23 d2 bd 4b f3 38 bc
       0.077316046 -0.08568369 -0.102607004 -0.011288474
000060 dc 00 54 3e cf ad 1e be 76 a5 af bd fd b2 11 3f
       0.20703453 -0.1549599 -0.08576481 0.5691374
000070 e0 99 57 bd cd f3 b6 bd 5c 2a dc bd aa 28 d0 be
       -0.05263698 -0.0893322 -0.10750267 -0.40656024
000080 0e fd dd bd 6d 58 8c 3d c6 bf bb bd 87 67 f1 bd
       -0.10839282 0.068528034 -0.09167437 -0.117873244
000090 4f ea 5e bb f6 fc c7 3c fe db 0e 3e fc 4d 94 be
       -0.003401417 0.024412613 0.13951108 -0.28965747
0000a0 53 80 89 3e 27 50 98 bd a2 42 54 3e 4c 31 9d 3d
       0.26855716 -0.07437163 0.20728543 0.07675418
0000b0 4d 21 ea bc 54 f8 34 bd bf 21 76 3d 56 6e b0 3d
       -0.028580332 -0.044182137 0.060090777 0.08614795
0000c0 47 d5 47 3d f3 b5 e6 3c a9 7c cb 3e 2e 18 13 3d
       0.04878738 0.028162932 0.39743546 0.03591173
0000d0 89 62 4f 3e 99 29 49 be fd eb 07 3e 2f 09 e6 be
       0.20252432 -0.19644774 0.13273616 -0.44928882
0000e0 30 a4 3e 3d 88 e2 8a be f3 5b 9a 3d 16 49 84 3d
       0.0465433 -0.27125955 0.07537069 0.064592525
0000f0 70 24 c3 bd 06 9c 35 be 3f 01 fc bd 07 10 bc 3d
       -0.09528434 -0.177353 -0.12304925 0.091827445

weight_ih_l2 f4 [64, 64]
000000 e8 ff a3 3d 8a 92 c3 3d 48 f2 65 be 58 9d bf bd
       0.080077946 0.095494345 -0.22455704 -0.09356183
000010 d9 78 13 be 8b b6 bd 3d e1 f8 d8 3e 99 8c d5 3c
       -0.14401568 0.09263333 0.4237738 0.026068019
000020 59 e8 85 be dd aa 53 bc f8 05 46 3e 09 91 4f 3e
       -0.2615383 -0.012919155 0.19338214 0.2027017
000030 4f d5 6a 3d 02 21 37 3e 2e 30 a4 bc 36 0a 92 bd
       0.057332333 0.17883685 -0.020042505 -0.07130854
000040 98 3f 73 3e 7d 9a 40 be 40 41 c5 ba 52 66 c8 ba
       0.23754728 -0.18808933 -0.0015049353 -0.0015289283
000050 2e 7d 49 3e 7e b9 e4 3d f6 51 2e bd 4f 96 0a 3e
       0.19676659 0.11168192 -0.042558633 0.135339
000060 f3 74 7f 3e 91 b5 d3 3d de e3 0f 3e 83 cb 80 be
       0.24946956 0.103373654 0.14051768 -0.25155267
000070 45 99 0f 3e c9 23 03 be fc b7 a6 3e 09 bb 83 3c
       0.14023311 -0.1280662 0.32562244 0.016080396
000080 0d 55 e0 be c7 c8 7f bb 24 7e 9a be a9 cb 0a bd
       -0.4381489 -0.0039029585 -0.30174363 -0.03388563
000090 ae 32 75 bd 9c be ac 3d 1f c5 de 3d 8e 8a e3 3d
       -0.059862785 0.08434793 0.108774416 0.111104116
0000a0 14 08 fa bc 8e 56 ae 3e 6f 6f 57 bd cd 9c cd 3d
       -0.03052143 0.3405041 -0.052596506 0.10039673
0000b0 93 41 0a bf ef f3 a2 3e e1 a8 2f be 25 a6 5f bd
       -0.5400631 0.31826732 -0.17154266 -0.054601807
0000c0 7a 1f d8 be 67 48 9b 3e 0f 17 48 3e 9f 58 ab bd
       -0.42211515 0.30328676 0.19540046 -0.083665125
0000d0 ef 7b a8 be b6 e2 d3 bd 3c 4b 22 be 18 c0 95 3c
       -0.32907054 -0.10345976 -0.15849012 0.018280074
0000e0 8b db 1c 3e 0a f6 d8 bc 49 66 01 bd da 3f b8 3b
       0.15318124 -0.026484508 -0.031591687 0.005622846
0000f0 5e da ed bd 9d 2c 88 be 18 dd 33 3d 2c 12 39 3e
       -0.11613916 -0.26596537 0.043912023 0.18073338
000100 7d 95 90 bd ff ce b0 3e 5d 54 a0 3e f4 29 37 3e
       -0.070597626 0.34532925 0.31314364 0.17887098
000110 9d 19 88 3e 00 9d 6f be 4c 51 8d 3c 4c b7 3c bb
       0.2658204 -0.23399734 0.01725068 -0.0028795777
000120 1d 7f 86 be a1 dc 1b bc 0b c5 d3 bd ff e2 50 3e
       -0.26268855 -0.009513051 -0.10340317 0.20399092
000130 56 5c be bd 3b 96 e7 3d 7d fc c4 3d 11 b5 30 be
       -0.092949554 0.11307951 0.09618471 -0.17256571
000140 ea 71 58 be 76 d9 09 be ac be a4 3d 92 0a 19 3f
       -0.21137205 -0.13461861 0.0804418 0.59781754
000150 f5 69 07 be bf 0e bd 3e e4 2d a5 3e 13 21 b3 bd
       -0.13224013 0.36925313 0.32261574 -0.08746543
000160 3e cd 09 3e cc 02 ba 3e 48 22 bc 3d b9 5e ce bd
       0.134572 0.3633026 0.09186226 -0.10076661
000170 b9 2e 7c bc 6e d0 41 3e 92 bb d5 3d 2c 93 eb 3d
       -0.015391999 0.18927166 0.10436167 0.1150268
000180 b2 27 8a be f2 57 20 be 96 b2 c8 3d 21 37 97 bd
       -0.2698341 -0.15658548 0.097996876 -0.07383562
000190 fc 12 78 3e 53 21 80 3d 14 a5 7c be f3 be 90 3d
       0.24225992 0.06256356 -0.24672347 0.07067671
0001a0 dc fc 3c 3e 29 0d 95 bd 8f bc 5a be 76 70 65 3e
       0.18455833 -0.07277901 -0.21360992 0.22406182
0001b0 63 ab 5d 3e 41 4d 8a 3d 90 7f 19 3d 97 ef 2d bc
       0.2164741 0.06753016 0.03747517 -0.010616205
0001c0 96 52 db 3c 6c db 81 3d cb 3b 0c bd fa 02 86 be
       0.026772778 0.063406795 -0.03423671 -0.26174146
0001d0 0d 33 09 3f aa c5 3a be 27 87 c6 bd 31 d0 ca 3e
       0.5359352 -0.18239465 -0.09693747 0.39611962
0001e0 b0 2d 89 be 32 87 67 bd c3 ea fc be 4b 56 8a bc
       -0.2679267 -0.056525417 -0.4939786 -0.01688685
0001f0 db a4 a9 be 25 db dd 3d a0 ff 5b bc 37 86 5f 3c
       -0.33133587 0.10832814 -0.013427645 0.013642839
000200 8b cb ba be 0c d3 a4 3e 60 de 40 be 34 87 fa bd
       -0.36483416 0.32192266 -0.1883483 -0.12232819
000210 e2 f6 82 3e e3 2e e1 bc c4 37 72 3c 9a 7b 9d bd
       0.25578982 -0.027488178 0.014783803 -0.07689591
000220 cc cd 6a be 52 4a 3b 3e e6 94 8b 3d 72 85 6f bd
       -0.22930068 0.1829007 0.068155095 -0.058476873
000230 21 e8 b7 bd 37 90 e2 be e9 d4 20 be c4 91 7e be
       -0.08979822 -0.44250652 -0.15706219 -0.24860293
000240 db 8d 21 3d 85 f6 cb 3d 7b 7b 11 3e 32 14 7e bb
       0.039441925 0.09959129 0.1420726 -0.0038769362
000250 f6 c8 7f 3b 19 a3 34 3e c2 42 be 3e 15 56 9e be
       0.0039029694 0.17640342 0.37160307 -0.3092505
000260 e7 e5 8e bd 6e cf 41 bd b2 8d 0a 3e d5 f7 6a 3e
       -0.06977444 -0.04731696 0.13530615 0.22946103
000270 64 2e ab bc 93 b0 15 3d e2 e2 94 bc 9d 58 2f be
       -0.020896144 0.036545347 -0.018174592 -0.17123647
000280 36 1d 90 be 01 7a 13 3e c1 e3 88 3d c2 b2 7c be
       -0.28147286 0.1440201 0.066840656 -0.24677566
000290 5b ea 0e be d0 3b c6 3d 3a 1f 0e 3e 41 6a 45 3d
       -0.13956587 0.09679377 0.138791 0.048197035
0002a0 71 ae 5f bd ec 77 be bc bc 4b 81 3c 34 87 1c be
       -0.05460972 -0.023250543 0.015783183 -0.15285951
0002b0 6f 1c 84 3e 63 53 84 bc 54 7b 98 be cf b7 11 be
       0.25802943 -0.016153043 -0.29781592 -0.14230274
0002c0 05 0b ce bc 73 df f6 be 4e e0 92 3e 9e f1 e5 bd
       -0.025151739 -0.48217353 0.28686756 -0.112277254
0002d0 8d f0 90 be 94 9a 8d 3e 0f 5d 24 bd 42 63 f1 3d
       -0.28308526 0.27656996 -0.04012781 0.1178651
0002e0 0d b9 43 bd 5c 67 c6 3d 63 1b 43 be dd 50 98 be
       -0.0477839 0.09687683 -0.19053416 -0.29749194
0002f0 a3 10 aa bd 77 78 5f 3e 45 17 99 3e 24 a6 99 bd
       -0.083039545 0.21823297 0.29900566 -0.07502392
000300 65 0d 0a 3e 20 a7 b7 be 6d d8 c2 bd 8d 3d 57 bd
       0.13481672 -0.35869694 -0.09513936 -0.052548934
000310 60 e8 8a bd 91 77 3f bf 8a 42 0c 3d ca 0a 98 bd
       -0.06782603 -0.7479182 0.034243144 -0.07423933
000320 a6 e8 1c 3d 75 77 76 be 87 c3 f9 bd f9 7f 96 be
       0.03830781 -0.24069007 -0.12195497 -0.2939451
000330 6f a2 91 3d 3b 9f 64 3e c0 aa 91 3b 0c 86 a4 bd
       0.0711106 0.22326367 0.004445404 -0.0803338
000340 4b 82 48 be 82 c9 9d be 1c d7 0f be f9 9a 01 be
       -0.19580953 -0.308178 -0.14046901 -0.12656774
000350 f3 5d 43 be 03 80 6b 3e 81 9b c0 3c f9 ae 7f 3e
       -0.19078808 0.22998051 0.02351165 0.2496909
000360 ee 32 6c 3d fa e2 e2 bd a4 3b 97 be 15 e7 ab be
       0.057665758 -0.110784486 -0.2953769 -0.3357474
000370 5f d2 99 be 0a c5 fe be 73 80 e0 bd f7 17 38 3d
       -0.30043313 -0.49759704 -0.10962 0.04494473
000380 55 d8 a0 3e fe e4 50 be 45 77 d8 be 39 65 b4 3d
       0.31415048 -0.20399854 -0.42278495 0.08808369
000390 d8 35 1c be cf 03 5b 3e 76 86 b0 3e 58 d9 06 be
       -0.15254915 0.21388172 0.34477586 -0.13168848
0003a0 44 87 40 be 0f 3a 1c be ca 76 ee bd 7a bb 99 be
       -0.188016 -0.15256523 -0.11643751 -0.30025846
0003b0 e8 0f 27 be 0d ef 0d 3d 4d 01 ec 3b 2f e2 7e 3e
       -0.16314662 0.034651805 0.0072023035 0.2489097
0003c0 d1 52 41 be d0 b6 19 be 79 d9 84 be 23 eb a7 3d
       -0.18879248 -0.15011144 -0.25947168 0.08199146
0003d0 c7 ac 2d 3f d2 cb 45 3e df 59 c4 3d c0 6f 63 3d
       0.6784176 0.19316033 0.09587454 0.055526495
0003e0 60 d8 82 be 66 82 d3 be 67 28 81 bc 75 4a 9b be
       -0.25555706 -0.41310424 -0.015766336 -0.30330244
0003f0 bb 51 1f 3e 37 c8 7c 3e 4d 32 fe 3d f5 b0 46 3e
       0.15558521 0.24685751 0.12411938 0.19403441

weight_hh_l2 f4 [64, 64]
000000 ee 22 a3 bd f3 b3 28 3e 9c 69 98 3c 5e d3 5f 3d
       -0.07965647 0.16474895 0.018605046 0.054644935
000010 04 fd fd 3c b0 3b 8c 3e d9 8d 3e 3e 78 b9 4a bd
       0.031004436 0.27389288 0.18608798 -0.049493283
000020 cb f3 d6 3d dd 71 8d 3e 8a 2c b4 bd 65 b3 2e 3e
       0.104957186 0.27625933 -0.08797558 0.17060621
000030 60 b7 a1 be e3 cc fb 3b 14 a3 82 3d 64 c5 e3 bc
       -0.31585217 0.0076843365 0.06378761 -0.027804084
000040 f5 bf 3a 3e 52 5e b4 3e 1b 0a 72 bc 2e c7 82 be
       0.18237288 0.3522821 -0.014772917 -0.25542587
000050 91 9f fd bd 88 e4 1e 3d f3 2d f4 bc 07 f1 48 3e
       -0.123839505 0.038792163 -0.029807067 0.19623195
000060 28 99 98 be c5 09 7a be c6 91 01 3e 52 12 2c bc
       -0.2980435 -0.2441779 0.12653264 -0.010502415
000070 86 cf a6 bd 4d b1 5d be 62 c6 5d be 87 d4 f5 3d
       -0.08145051 -0.21649666 -0.21657708 0.12003427
000080 42 e6 e5 be c9 0c 4e 3d 58 92 c1 3d f0 db 37 be
       -0.44902235 0.05030516 0.09451741 -0.17954993
000090 e5 9e 38 be 94 99 fe 3d ce 9a 9a bd ef 67 d7 3e
       -0.18029363 0.124316365 -0.07549058 0.42071483
0000a0 bf 1d 66 3e 7f 4f 1a bd f0 d3 b2 bd 77 66 3d 3d
       0.22472285 -0.03767347 -0.0873183 0.046240296
0000b0 e7 79 28 3e 74 53 9b 3d 76 f9 be be 88 91 88 3b
       0.16452752 0.07584277 -0.372997 0.0041677393
0000c0 c5 51 a7 bd 17 b4 6d 3e 8f 1c b4 bc a0 d6 c3 be
       -0.08169893 0.2321323 -0.021986274 -0.38249683
0000d0 64 5e f0 bd 2f 2d 0f 3b 87 76 52 3e 0c e1 59 ba
       -0.117367536 0.0021847 0.20553027 -0.00083114277
0000e0 76 dd 27 be 07 e4 f9 bc 2b 8e bc 3d 9f 7a f2 bc
       -0.16393074 -0.03050424 0.09206804 -0.029599486
0000f0 6c c5 42 3d f2 0b 8a bd 89 a6 c1 3d bd 69 57 be
       0.047551557 -0.0674056 0.09455592 -0.2103643
000100 b1 5a e1 3c d6 d8 49 3c 26 90 4a be 9b b8 10 3e
       0.027509065 0.012319764 -0.19781551 0.14132921
000110 8f 8c a0 be 97 c3 94 bc 56 08 26 be 89 0e 7c 3d
       -0.31357238 -0.01815967 -0.16214117 0.0615373
000120 c4 10 be bd 7f 3c 30 be 76 e6 22 bd 41 c8 18 bd
       -0.092805415 -0.17210577 -0.039770566 -0.037300352
000130 08 b1 af 3d 05 25 25 be 3a bc 87 3d 51 c0 f1 3c
       0.08578688 -0.16127403 0.06627698 0.029510649
000140 fd 78 70 3e 26 bc 53 3b ef 09 53 be 7c 15 c9 bd
       0.23483653 0.003230819 -0.20609258 -0.09818551
000150 ad ea eb bd 34 dc 6c bd 9c 22 ae bc 61 c6 4a 3e
       -0.1151937 -0.05782719 -0.021256737 0.19802238
000160 4f 4f 12 3d 90 cd 9c bd c9 84 4a 3e aa 2b 89 3d
       0.035720166 -0.076563954 0.19777216 0.066977814
000170 c6 42 f7 3d 84 ed ca 3e 46 9c dd bd 2d a7 07 be
       0.12073283 0.39634335 -0.108208224 -0.13247366
000180 44 c6 44 3e 11 e8 47 be 22 48 b6 bd 07 5f 6c 3e
       0.19216257 -0.1952212 -0.08900477 0.23083125
000190 5f 22 4c 3d dd fc d2 3d 89 83 af bc 6f 0f 86 3c
       0.049837466 0.10302136 -0.021425026 0.016364781
0001a0 00 ac 0c 3c f4 10 3d 3e 42 a9 07 be ca 2d 3e bd
       0.00858593 0.18463498 -0.1324816 -0.046430387
0001b0 7e d5 84 be 6d fe 7f 3d 72 95 c7 bd b2 0e c6 3e
       -0.25944132 0.0624985 -0.09745301 0.38683087
0001c0 4b 54 0f be 12 20 33 be 84 e3 15 be 85 46 3c bd
       -0.13996999 -0.17492703 -0.14637572 -0.04596569
0001d0 de 3e c4 bd b6 97 49 3e f8 e8 0d 3d a1 99 0c 3e
       -0.095823035 0.1968678 0.034646004 0.1373048
0001e0 8e 50 71 3e 5a 81 8e be e4 74 9a be df c1 6b 3e
       0.23565885 -0.27833062 -0.30167305 0.23023175
0001f0 6e 2d 28 be e7 4f 2d be 79 45 66 3e 0d 0e 1a bd
       -0.1642358 -0.16925012 0.22487439 -0.037611056
000200 40 d2 59 3b d6 50 9f 3e a5 a0 84 be 1b 32 ce 3d
       0.003323689 0.3111636 -0.25903812 0.100681506
000210 72 66 57 bd bc 85 a6 bd 1d 80 7f 3d 62 1d 8e be
       -0.052587934 -0.081309766 0.062378038 -0.27756792
000220 35 1f ce 3d 35 6d a2 3e 30 46 09 bc 95 ee 16 be
       0.10064546 0.31723943 -0.00837855 -0.1473945
000230 d5 70 f0 bd f3 04 5d 3e 65 1f 4f 3e 0c 6c 2b 3e
       -0.11740271 0.21583919 0.2022682 0.16740435
000240 bb 73 dc 3d f6 4b 9d 3d ca e4 52 3e 7a 82 73 3e
       0.10764261 0.07680504 0.20595089 0.23780242
000250 f9 c7 a3 bb cc ad 15 be cb fe c9 bc d4 3f f4 3d
       -0.004998204 -0.1461708 -0.024657628 0.11926237
000260 c7 2e 2d 3d 1e ef 03 be 17 db df bd 78 20 83 3e
       0.04228094 -0.12884185 -0.1093046 0.2561071
000270 16 4b 06 be b9 f6 95 3e 15 20 e1 ba c4 57 a6 3d
       -0.1311458 0.29289797 -0.0017175699 0.08122209
000280 25 95 92 3e cb cc 40 3e e9 80 31 bd 41 b9 3e 3d
       0.28629413 0.18828122 -0.04333583 0.04656339
000290 a2 25 74 be b7 c8 ac 3b c3 23 51 bc b4 d9 15 3e
       -0.23842481 0.0052729505 -0.012764874 0.14633828
0002a0 cb ca 30 3e 9e 01 1d be b5 72 11 3e 21 50 3e be
       0.1726486 -0.15332648 0.14203914 -0.18585254
0002b0 e3 20 4d bc 27 a2 e5 bd 4b a1 18 3d 72 94 81 bd
       -0.012520048 -0.11212569 0.037263196 -0.06327142
0002c0 4e 94 c5 3b a5 7a 6d be 1f 7c 19 3e eb 86 fb bb
       0.006029642 -0.23191316 0.14988755 -0.0076759956
0002d0 47 ba 68 be f4 06 9f 3d ff fb 55 3d 40 20 c7 bd
       -0.22727309 0.07764998 0.052242275 -0.09722948
0002e0 2e ad 27 3d 72 17 04 be bf fa 0d be 95 f7 d6 3d
       0.04093664 -0.12899569 -0.13865183 0.10496441
0002f0 b5 2d d6 be 3e 5b 87 be 07 f3 9b bd 4c fd ec bc
       -0.41831747 -0.264368 -0.07614713 -0.028929375
000300 c4 fa 20 3d 0e 81 84 be 97 b4 89 3d 41 01 3d be
       0.03930165 -0.2587971 0.06723898 -0.1845751
000310 d1 f8 61 3c b9 f9 00 3f d1 ae 69 3e 25 74 89 bd
       0.013792233 0.50381047 0.22820593 -0.06711606
000320 6e d6 57 3e f5 b6 c3 3e d8 45 04 3e 54 f8 b7 3d
       0.21077892 0.38225523 0.12917268 0.08982912
000330 a7 84 04 3e e4 79 c1 bd 21 2e f0 3d 70 2c 91 3e
       0.12941228 -0.09447077 0.117275484 0.28354216
000340 95 6f c1 bd f4 41 f4 3c 56 14 45 be 88 30 7f 3d
       -0.09445111 0.029816605 -0.19246039 0.062302142
000350 cf 07 14 3e 23 3e 76 be 7c 89 a5 bb 05 62 04 3e
       0.14456104 -0.24047141 -0.00505179 0.12928016
000360 25 e0 9d bb 4a 74 2b be cf 6b 75 3e 10 8e 9a be
       -0.00481798 -0.1674358 0.23966907 -0.3018651
000370 22 5a 6c bd d9 8e e1 3b fc a1 b6 be a0 fc 53 3e
       -0.057703145 0.006883484 -0.3567046 0.20701838
000380 24 ae 9e be 9d e7 53 bd 7f 09 25 3a 5f 56 12 be
       -0.30992234 -0.051734556 0.00062956655 -0.1429076
000390 ae fd bf 3d 99 9d 50 3e 50 b2 a2 3d 14 f8 b4 be
       0.093745574 0.20372619 0.07944167 -0.3534552
0003a0 b9 c8 f0 3e e9 97 ca 3d 4b 27 04 3e ad a5 c6 bd
       0.4702814 0.09892256 0.12905614 -0.09699569
0003b0 39 1d b0 3e 23 2e c1 be 81 cd e2 3b 7a af fd 3d
       0.34397295 -0.37730512 0.0069214706 0.12386985
0003c0 a5 e7 50 be 15 e4 43 3d 4a e4 83 3d 78 7f a0 3e
       -0.20400865 0.047824938 0.06440027 0.3134725
0003d0 dd bb 81 be 98 c7 20 3e 8e 4c 64 be 92 92 59 3e
       -0.2533864 0.15701139 -0.22294828 0.21247318
0003e0 7e ff f4 bd d5 16 56 be 73 65 a9 be 21 78 f0 3d
       -0.11962794 -0.20907147 -0.33085212 0.11741663
0003f0 32 bd b7 3e 9a 10 6b 3e f3 92 5f be 42 2c 74 be
       0.35886532 0.22955552 -0.218334 -0.23845008
